…
yoloV3也是一个物品检测的小程序，而且搭建起来比较简单。这里要申明，本文用的是yoloV3的tiny版，正式版和tiny版安装的方法都是一样的，只是运行时的配置文件和权重文件不一样。我曾经试图跑正式版，但是跑不起来，基本上到第二次卷积就挂掉了，毕竟nano只有4G内存。

闲话少说，开始安装。

1. 安装CUDA，OpenCV，cuDNN

不说了，如果没安装的请看前文吧。

2. 下载

git clone https://github.com/pjreddie/darknet.git
3. 配置

cd darknet && git pull
gedit Makefile   #修改Makefile
4.  将Makefile的前三行修改一下

GPU=1
CUDNN=1
OPENCV=1
5.  编译

make -j4


6. 下载权重文件，这里直接下载tiny版的权重文件

wget https://pjreddie.com/media/files/yolov3-tiny.weights
 7.  测试

./darknet detect cfg/yolov3-tiny.cfg yolov3-tiny.weights data/dog.jpg
layer     filters    size              input                output
    0 conv     16  3 x 3 / 1   416 x 416 x   3   ->   416 x 416 x  16  0.150 BFLOPs
    1 max          2 x 2 / 2   416 x 416 x  16   ->   208 x 208 x  16
    2 conv     32  3 x 3 / 1   208 x 208 x  16   ->   208 x 208 x  32  0.399 BFLOPs
    3 max          2 x 2 / 2   208 x 208 x  32   ->   104 x 104 x  32
    4 conv     64  3 x 3 / 1   104 x 104 x  32   ->   104 x 104 x  64  0.399 BFLOPs
    5 max          2 x 2 / 2   104 x 104 x  64   ->    52 x  52 x  64
    6 conv    128  3 x 3 / 1    52 x  52 x  64   ->    52 x  52 x 128  0.399 BFLOPs
    7 max          2 x 2 / 2    52 x  52 x 128   ->    26 x  26 x 128
    8 conv    256  3 x 3 / 1    26 x  26 x 128   ->    26 x  26 x 256  0.399 BFLOPs
    9 max          2 x 2 / 2    26 x  26 x 256   ->    13 x  13 x 256
   10 conv    512  3 x 3 / 1    13 x  13 x 256   ->    13 x  13 x 512  0.399 BFLOPs
   11 max          2 x 2 / 1    13 x  13 x 512   ->    13 x  13 x 512
   12 conv   1024  3 x 3 / 1    13 x  13 x 512   ->    13 x  13 x1024  1.595 BFLOPs
   13 conv    256  1 x 1 / 1    13 x  13 x1024   ->    13 x  13 x 256  0.089 BFLOPs
   14 conv    512  3 x 3 / 1    13 x  13 x 256   ->    13 x  13 x 512  0.399 BFLOPs
   15 conv    255  1 x 1 / 1    13 x  13 x 512   ->    13 x  13 x 255  0.044 BFLOPs
   16 yolo
   17 route  13
   18 conv    128  1 x 1 / 1    13 x  13 x 256   ->    13 x  13 x 128  0.011 BFLOPs
   19 upsample            2x    13 x  13 x 128   ->    26 x  26 x 128
   20 route  19 8
   21 conv    256  3 x 3 / 1    26 x  26 x 384   ->    26 x  26 x 256  1.196 BFLOPs
   22 conv    255  1 x 1 / 1    26 x  26 x 256   ->    26 x  26 x 255  0.088 BFLOPs
   23 yolo
Loading weights from yolov3-tiny.weights...Done!
data/dog.jpg: Predicted in 0.239507 seconds.
dog: 56%
car: 52%
truck: 56%
car: 62%
bicycle: 58%





jetson nano入门（四）pytorch安装
https://github.com/pytorch/pytorch

conda install numpy ninja pyyaml mkl mkl-include setuptools cmake cffi typing
# Add LAPACK support for the GPU if needed
conda install -c pytorch magma-cuda90 # or [magma-cuda92 | magma-cuda100 | magma-cuda101 ] depending on your cuda version
…
